Models/Embedding/embedding_gan.pt (torch, 670505 bytes, 157 tensors)

module.fc.weight f4 [256, 32]
0.20570332 -0.087618105 0.0130527215 -0.10970077 0.057096742 -0.019954087 -0.017345391 -0.04107628
0.109856606 -0.0075487928 0.040184572 -0.009677181 -0.14046066 0.07547159 0.17202236 -0.105976865
-0.06797088 -0.14633875 -0.06918562 0.10401104 -0.0572439 0.15591642 0.23300965 0.082444176
0.031585477 0.062118884 -0.06501948 0.15186486 0.005650521 -0.055989094 -0.0417099 0.1298253
-0.16778533 0.086652294 0.035065193 -0.1443232 0.055162027 -0.059742637 0.084923 0.20665097
0.0867642 -0.022281887 -0.04151893 -0.063335344 -0.017416952 0.14972728 0.01460804 0.16176501
0.1011481 0.068577856 0.1540171 -0.06442154 0.2694585 0.06626415 0.12368615 -0.09812005
-0.06083799 0.13943018 -0.086900026 0.017850928 0.08320849 0.0898406 0.14265952 -0.18309774
0.015163923 0.0062991497 0.10086487 -0.13746452 0.06644121 0.02845338 0.13020949 -0.008865828
-0.10960032 -0.00706309 -0.042772505 0.033031296 0.108554155 -0.016869362 0.20903973 0.01071001
0.08840209 -0.19427688 -0.029801749 0.05873076 -0.062535994 -0.16777225 -0.1045407 -0.08092432
0.10299422 0.11923806 0.11016425 0.118065976 -0.11869434 -0.0035165048 0.08668092 0.055939343
-0.16056287 0.14184615 -0.07820395 0.16697402 -0.13593304 -0.036236666 -0.07550546 -0.05203279
-0.10882649 0.09764995 -0.01617638 0.13655896 0.08409762 -0.07007594 -0.009739833 -0.050873432
-0.015823098 0.042322725 0.09797747 -0.0016264555 -0.12835976 -0.13049023 -0.111859456 -0.0670117
-0.04803548 -0.2466508 -0.025462862 -0.20628358 -0.0055413693 -0.05885068 -0.22861062 0.017048718
0.16739728 -0.22337821 0.08399473 0.09360605 -0.017701373 -0.11677732 -0.09361668 -0.081668824
0.0011611774 -0.107575476 -0.060737636 0.046743643 0.1717041 -0.27412286 -0.021222511 -0.063724115
-0.014322768 0.17010742 -0.0831421 -0.109221436 -0.07071776 -0.13354492 -0.13286744 -0.060296353
-0.006764023 0.12793283 0.09141657 0.065736406 0.07402429 -0.015265271 -0.0425452 0.18595107
0.0029200958 -0.08640712 0.03737419 -0.07231284 0.06180777 -0.16496506 -0.18018043 0.08162846
0.0961976 -0.1304428 0.07525238 -0.05320956 0.021208202 -0.0068672365 -0.04624951 0.0513684
-0.12189412 -0.10535142 -0.07084122 0.055628903 0.026136652 0.25088406 0.11667032 0.0762615
0.0054083443 0.22184548 0.103176504 0.06908771 -0.043260273 -0.08363579 0.09720061 0.046677858
-0.05853935 -0.045575567 0.062098242 -0.07543323 0.06955346 -0.15795891 0.10219187 0.08898054
0.067136414 -0.14007138 -0.12040379 -0.025813062 0.049127698 -0.0075888676 -0.088144094 0.28171268
0.107310295 0.09789302 -0.043061536 -0.16039336 0.07734619 -0.054698147 -0.22275312 -0.08874485
-0.010476156 0.084269285 0.09912949 -0.052314535 0.04240487 0.051173992 0.14464018 -0.006329272
0.13055187 0.110907085 -0.0115344515 -0.22496562 -0.112670444 0.057511576 -0.05832371 -0.035409737
0.03421407 0.1626695 0.13039915 -0.08008654 -0.11528838 0.1850092 -0.02577839 -0.20652129
-0.045531623 -0.06915113 0.00533171 0.17128609 0.083210394 0.109863445 0.16801326 0.09086677
-0.122740805 -0.00018987144 0.070665546 0.104829 -0.11073987 0.018612074 0.08357997 0.03896378
00000000: e4a3 523e 1f71 b3bd 15db 553c ccaa e0bd
00000010: 46de 693d c176 a3bc ec17 8ebc 9a3f 28bd
00000020: 80fc e03d dd5b f7bb 9498 243d 0a8d 1ebc
00000030: ebd4 0fbe d990 9a3d a126 303e 660a d9bd
00000040: 5134 8bbd d3d9 15be 31b1 8dbd bd03 d53d
00000050: 9478 6abd 8ea8 1f3e 159a 6e3e 7ed8 a83d
00000060: c65f 013d 5f70 7e3d ef28 85bd 7682 1b3e
00000070: 0128 b93b d254 65bd 00d8 2abd ecf0 043e
00000080: ebcf 2bbe c276 b13d 85a0 0f3d 76c9 13be
00000090: 94f1 613d b2b4 74bd 1cec ad3d 509c 533e
000000a0: 6eb1 b13d 8188 b6bc c10f 2abd f6b5 81bd
000000b0: ffad 8ebc 1c52 193e 9056 6f3c baa5 253e
000000c0: bc26 cf3d 8c72 8c3d a9b6 1d3e 71ef 83bd
000000d0: 77f6 893e 80b5 873d 2a4f fd3d 2af3 c8bd
000000e0: 4231 79bd c9c6 0e3e a4f8 b1bd 1c3c 923c
000000f0: 3669 aa3d 59fe b73d 5615 123e f97d 3bbe
00000100: 1a72 783c 1969 ce3b 3e92 ce3d 80c3 0cbe
00000110: 5412 883d 1017 e93c a355 053e fa41 11bc
00000120: 2276 e0bd 7e71 e7bb 3932 2fbd d34b 073d
00000130: a451 de3d 9e31 8abc 830e 563e 0a79 2f3c
00000140: 280c b53d 85f0 46be cc22 f4bc aa8f 703d
00000150: df12 80bd 7dcc 2bbe 6f19 d6bd a6bb a5bd
00000160: a2ee d23d 1633 f43d cb9d e13d 93cc f13d
00000170: 0516 f3bd 2975 66bb c485 b13d a720 653d
00000180: 986a 24be 1e40 113e 6429 a0bd 3dfb 2a3e
00000190: 0832 0bbe e66c 14bd 9ba2 9abd 5620 55bd
000001a0: 6ce0 debd b2fc c73d 5484 84bc 1dd6 0b3e
000001b0: 5f3b ac3d f983 8fbd d293 1fbc a960 50bd
000001c0: 719f 81bc 985a 2d3d 69a8 c83d ca2e d5ba
000001d0: be70 03be 3b9f 05be 9216 e5bd 6e3d 89bd
000001e0: dac0 44bd 0792 7cbe 7e97 d0bc 013c 53be
000001f0: 6094 b5bb 690d 71bd e718 6abe c1a9 8b3c
00000200: 316a 2b3e 42bd 64be 6e05 ac3d 87b4 bf3d
00000210: 7802 91bc f328 efbd 1aba bfbd fc41 a7bd
00000220: a632 983a 8850 dcbd 07c8 78bd 4376 3f3d
00000230: 33d3 2f3e d559 8cbe d5da adbc ca81 82bd
00000240: 0baa 6abc a430 2e3e 6846 aabd 7daf dfbd
00000250: 79d4 90bd 00c0 08be 670e 08be 4ff9 76bd
00000260: bda4 ddbb d300 033e 9c38 bb3d cfa0 863d
00000270: 0c9a 973d 301b 7abc e043 2ebd f569 3e3e
00000280: 145f 3f3b 37f6 b0bd ae15 193d c118 94bd
00000290: 252a 7d3d 9aec 28be 3881 38be d22c a73d
000002a0: 3f03 c53d cc92 05be eb1d 9a3d 45f2 59bd
000002b0: d3bc ad3c 8e06 e1bb 2070 3dbd ac67 523d
000002c0: a0a3 f9bd 7cc2 d7bd 3415 91bd 22db 633d
000002d0: 881c d63c e073 803e d9f0 ee3d fd2e 9c3d
000002e0: 7b38 b13b 762b 633e 344e d33d db7d 8d3d
000002f0: af31 31bd 3e49 abbd 1d11 c73d 4831 3f3d
00000300: f5c6 6fbd 72ad 3abd ba5a 7e3d bd7c 9abd
00000310: 0b72 8e3d fbbf 21be f949 d13d 6e3b b63d
00000320: d17e 893d df6e 0fbe 4396 f6bd ea75 d3bc
00000330: 203a 493d 09ac f8bb e484 b4bd a53c 903e
00000340: 80c5 db3d 237c c83d 4b61 30bd 283e 24be
00000350: ae67 9e3d 2a0b 60bd 6519 64be dcbf b5bd
00000360: 2fa4 2bbc 6095 ac3d 6704 cb3d c447 56bd
00000370: bbb0 2d3d d29b 513d 8e1c 143e c865 cfbb
00000380: 64af 053e 4123 e33d fffa 3cbc 635d 66be
00000390: c3bf e6bd 4291 6b3d d8e4 6ebd cd09 11bd
000003a0: 0d24 0c3d d592 263e 5b87 053e 6904 a4bd
000003b0: 501c ecbd 0d73 3d3e 342d d3bc 517a 53be
000003c0: 5e7f 3abd 1c9f 8dbd a0b5 ae3b 9f65 2f3e
000003d0: 366a aa3d 1600 e13d ab0b 2c3e 5b18 ba3d
000003e0: 885f fbbd 3a18 47b9 19b9 903d 96b0 d63d
000003f0: 96cb e2bd 5978 983c fa2b ab3d 7c98 1f3d

module.fc.bias f4 [256]
0.061000686 -0.13945101 0.12242185 -0.057906847 -0.025881484 -0.035316627 0.012924275 0.06583252
-0.16355237 0.046730455 0.049883828 -0.15899168 0.16111612 0.15951042 -0.17646295 -0.14598323
-0.16620399 -0.1679105 -0.13664813 0.027041601 0.06705059 0.060324594 0.13234836 0.1635815
0.13708742 -0.14850412 0.14604788 0.06886909 -0.10260458 0.02687726 -0.030630382 -0.050656248
0.09323147 0.13300158 -0.115153484 -0.043867044 0.1050322 0.17514679 -0.024712386 -0.14949292
0.08835744 -0.13174123 0.06156305 0.011926295 -0.052436806 0.009315439 0.0038366322 -0.00438617
-0.17526914 -0.14785485 0.08783937 0.08342146 -0.015165749 0.034338817 -0.014660171 -0.026590835
-0.06978198 -0.11790309 -0.08836 0.002136038 -0.16861506 -0.06100859 -0.038650412 -0.1353247
0.05238935 0.04005344 -0.10199045 -0.008324683 -0.007971931 -0.064525306 0.13552311 -0.15272817
0.07298865 -0.15708846 -0.10719609 0.014996029 0.11940886 -0.17025958 0.072209336 -0.028295783
-0.07263332 -0.113145895 -0.0051681926 -0.0068667773 -0.04773123 -0.10359699 -0.07567119 0.040200394
-0.0140429465 0.0249546 0.013817243 0.0007048554 -0.071644425 -0.11983944 -0.13360994 0.16801189
0.06927827 -0.124171264 0.023306023 0.0988048 -0.07542814 -0.020851353 -0.14974074 0.0015845788
0.04980836 -0.013459938 0.10359531 0.01007124 0.009957388 0.13935547 -0.10292476 -0.1707054
0.10800583 0.061252274 0.056254417 0.1248129 0.08644669 0.15114076 0.17188299 -0.046545386
0.15517613 0.08625436 -0.10809493 -0.11710149 -0.1377477 -0.033941396 0.066216975 -0.14883734
0.10703232 0.0038239304 0.04667574 0.019521728 0.15317951 -0.036706176 0.004958143 0.1400104
0.029001137 -0.13130784 -0.011821257 0.07082088 -0.021609697 -0.10758643 -0.120814785 0.12733139
0.073814884 -0.13681422 0.13398123 0.051177572 -0.04795282 -0.15597609 -0.08189704 -0.06021717
-0.08141838 -0.13659935 0.13143896 0.044800576 -0.045619987 -0.011211373 0.03162372 0.053368926
0.096948735 -0.08068576 -0.13406076 -0.041372444 -0.03747276 0.024970388 -0.101397336 0.031499665
-0.12564927 0.17613603 -0.09893023 0.13096242 0.078367405 -0.15571679 0.12618282 0.080932565
0.12458488 0.0406499 0.043076865 -0.024702419 0.08849815 0.103273496 0.03408955 -0.12851973
-0.010199276 0.0155432755 0.116739325 0.15483171 0.119400196 -0.12831475 -0.11557683 -0.17137319
-0.041924886 0.14850709 0.09883377 -0.15811257 -0.041837573 0.16491891 -0.05820688 -0.06473697
0.15976517 -0.004432346 -0.02154494 0.104030296 0.03824947 0.1686411 0.08042844 0.094512954
0.027820187 -0.11679002 -0.10971657 0.11545202 0.020740962 -0.14401759 -0.081304416 -0.04205615
-0.10236699 -0.085285485 0.0866878 0.0037078233 0.09201396 0.115437604 -0.07415809 -0.0364786
-0.023420963 0.061996397 -0.14822073 0.01269258 0.17077592 0.10350587 0.061313298 -0.030452771
0.094536774 -0.028777601 -0.15780222 0.015732484 -0.16798276 -0.03980344 -0.03561972 -0.043182466
-0.0330511 -0.06858624 0.03135671 0.04717427 0.018348254 0.08978329 0.12983249 -0.04883482
-0.0675041 0.10446876 -0.119664356 0.017884584 0.13989884 0.032045145 0.0132949175 0.03680189
00000000: dbdb 793d 3fcc 0ebe 4fb8 fa3d bb2f 6dbd
00000010: 6805 d4bc 2ba8 10bd 57c0 533c 33d3 863d
00000020: 467a 27be 6f68 3f3d fc52 4c3d b7ce 22be
00000030: a0fb 243e b356 233e b4b2 34be a17c 15be
00000040: 6131 2abe bbf0 2bbe 7ded 0bbe 5986 dd3c
00000050: d251 893d ec16 773d 5486 073e e981 273e
00000060: a560 0c3e 7711 18be 938d 153e 3d0b 8d3d
00000070: 5a22 d2bd b32d dc3c 91ec fabc ed7c 4fbd
00000080: 24f0 be3d 9131 083e 97d5 ebbd eead 33bd
00000090: 1f1b d73d ae59 333e a171 cabc ac14 19be
000000a0: bff4 b43d 2ce7 06be 8929 7c3d 8266 433c
000000b0: fac7 56bd c89f 183c 0270 7b3b dcb9 8fbb
000000c0: c179 33be 4367 17be 21e5 b33d dfd8 aa3d
000000d0: c379 78bc dca6 0c3d 3731 70bc 06d5 d9bc
000000e0: dbe9 8ebd 2d77 f1bd 16f6 b4bd c5fc 0b3b
000000f0: 6da9 2cbe 25e4 79bd e54f 1ebd 8f92 0abe
00000100: 3796 563d 130f 243d 5ee0 d0bd 4064 08bc
00000110: b49c 02bc d825 84bd 92c6 0a3e c664 1cbe
00000120: 137b 953d ccdb 20be a089 dbbd e8b1 753c
00000130: a28c f43d 8758 2ebe 7de2 933d 8fcc e7bc
00000140: c7c0 94bd 09b9 e7bd f159 a9bb b402 e1bb
00000150: d281 43bd a92a d4bd 7ff9 9abd 2ba9 243d
00000160: 6314 66bc 976d cc3c b861 623c 0cc6 383a
00000170: 50ba 92bd 616e f5bd 0bd1 08be 4f0b 2c3e
00000180: c4e1 8d3d 814d febd 46ec be3c 2c5a ca3d
00000190: 127a 9abd 75d0 aabc a355 19be a4b1 cf3a
000001a0: da03 4c3d 1287 5cbc c729 d43d d801 253c
000001b0: 5024 233c 33b3 0e3e 37ca d2bd 65cd 2ebe
000001c0: 2932 dd3d aae3 7a3d 086b 663d e89d ff3d
000001d0: f60a b13d a5c4 1a3e 1802 303e 60a6 3ebd
000001e0: 7ee6 1e3e 20a6 b03d e060 ddbd e8d2 efbd
000001f0: bc0d 0dbe 2206 0bbd c49c 873d d168 18be
00000200: c333 db3d e89a 7a3b 102f 3f3d 08ec 9f3c
00000210: 17db 1c3e 3759 16bd eb77 a23b e35e 0f3e
00000220: cb93 ed3c 9075 06be f2ad 41bc 8a0a 913d
00000230: d206 b1bc 4656 dcbd be6d f7bd 2963 023e
00000240: 422c 973d 0719 0cbe 6032 093e 939f 513d
00000250: 2d6a 44bd 32b8 1fbe a3b9 a7bd 47a6 76bd
00000260: aebe a6bd b3e0 0bbe ef97 063e cf80 373d
00000270: 06dc 3abd e8af 37bc e087 013d 6099 5a3d
00000280: 0f8d c63d 933e a5bd 3947 09be 2776 29bd
00000290: 097d 19bd b38e cc3c 68a9 cfbd cb05 013d
000002a0: 34aa 00be 015d 343e ef9b cabd 031b 063e
000002b0: 177f a03d 3974 1fbe 1236 013e f9bf a53d
000002c0: 5c26 ff3d 8280 263d 5e71 303d ba5c cabc
000002d0: 853e b53d 0e81 d33d 7ca1 0b3d ad9a 03be
000002e0: dd1a 27bc 39a9 7e3c 0715 ef3d 348c 1e3e
000002f0: 1788 f43d f164 03be 8cb3 ecbd 747c 2fbe
00000300: 6eb9 2bbd 3e12 183e 5c69 ca3d 43e8 21be
00000310: e05d 2bbd 81e0 283e 566a 6ebd d194 84bd
00000320: 7b99 233e 373d 91bb 047f b0bc d60d d53d
00000330: 7aab 1c3d 41b0 2c3e aab7 a43d 0290 c13d
00000340: 29e7 e33c 9b2f efbd 15b3 e0bd 1c72 ec3d
00000350: f3e8 a93c 5979 13be ee82 a6bd 1243 2cbd
00000360: c9a5 d1bd 28aa aebd 6089 b13d f4fe 723b
00000370: d171 bc3d 8d6a ec3d 32e0 97bd 966a 15bd
00000380: 52dd bfbc efef 7d3d 2dc7 17be 8af4 4f3c
00000390: e2df 2e3e e3fa d33d a723 7b3d 1778 f9bc
000003a0: 7f9c c13d 01bf ebbc e896 21be 69e1 803c
000003b0: ac03 2cbe ef08 23bd fce5 11bd 19e0 30bd
000003c0: 9760 07bd f176 8cbd e56f 003d cf39 413d
000003d0: 144f 963c 4de0 b73d cff2 043e 0507 48bd
000003e0: 973f 8abd b8f3 d53d 9612 f5bd b182 923c
000003f0: a441 0f3e c541 033d edd2 593c 94bd 163d

module.bn1d.weight f4 [256]
1.273554 0.78623605 0.78045774 1.0865697 0.57939345 0.8180415 0.9204848 1.6592679
0.8421138 0.6535117 1.0372272 0.9873178 1.1321434 0.81881 0.93931 0.87876785
0.79201895 0.91352254 0.7971173 0.8779999 0.7244541 0.87713 0.9038489 0.81605345
0.9285837 0.71694374 0.49150115 0.9966056 1.7136679 0.8296023 0.650174 0.86368823
1.2546612 0.9212325 0.82080346 1.2065022 0.84683275 0.7931848 0.93227595 0.96390694
0.8614859 1.0591912 0.6860657 0.8310862 0.99114174 0.7792592 0.890551 0.8265529
1.0045176 0.798514 0.7660262 0.91798294 1.0210787 1.0340252 1.000571 0.9934629
0.8503871 0.89458776 0.6404747 1.0035802 0.8831686 0.96584237 0.90129596 0.85610646
0.93514633 0.9214012 0.731388 0.9870851 0.76562566 0.8999223 0.8667172 0.747951
0.80264294 0.82557124 0.93497384 0.8739363 1.0084318 1.1906207 0.8566124 0.9101081
0.91418684 0.85183287 1.0122381 0.6567516 0.8736005 1.1800144 0.86350316 0.811547
0.8463967 0.84097683 0.7708706 0.8096222 0.74021447 1.1240745 0.9587187 0.9867725
1.1411452 0.8489012 1.0378408 0.84464633 0.8172086 0.9055884 1.0952168 0.80080193
0.62588197 0.9171995 0.93367434 1.1095427 0.8289256 0.86306244 0.9585588 0.92660064
0.98023206 1.1076934 0.8348602 0.7363216 0.95234764 0.9681463 1.0819409 0.8669917
0.9535012 0.707698 0.8016393 0.94991666 0.9117085 0.85754734 0.7728466 0.8926361
0.8813452 1.0049373 0.93915796 0.64883894 0.7998256 0.9350343 1.1474173 0.9117922
0.93456733 0.96403086 0.78899664 1.1080867 0.9281672 0.9912784 1.0904092 0.7605772
0.8737267 1.0060831 1.0363221 0.63327533 0.9896048 0.7887675 0.8816832 0.8670829
0.9019617 1.1163366 0.76206744 0.9841909 0.7981486 0.870136 0.83035547 0.981257
0.9875908 0.74453497 0.7732095 0.85635406 1.0143566 0.8427255 0.8278633 1.0377935
0.85237384 0.88028735 1.0096217 0.94277847 0.9252321 1.0643723 0.85723966 0.8564166
1.0326473 0.97664404 0.79003674 0.8736651 1.0483545 0.8782666 0.78681606 0.9469321
0.89081895 0.8541955 0.74578017 0.8682002 0.72589207 0.990412 0.93707865 0.77364916
0.87252396 1.3318042 1.2097602 1.0301012 0.8008678 0.8930924 0.69741845 0.94161147
1.1971134 0.6567993 0.9569512 0.9683149 1.000905 1.1594355 0.81799877 0.9345774
1.242446 0.88241804 0.94202566 0.71295583 0.926965 1.096796 0.85121715 0.88735497
0.78526574 1.0548759 0.70262945 0.6595105 0.92259 0.9501855 1.0664275 0.7160306
0.9850273 0.895089 1.0123806 1.0682621 0.92402744 0.7052851 0.8577471 0.81726855
0.9086925 1.0784231 0.84685004 1.0011791 0.74609756 1.1257443 1.0404601 0.8229785
0.93446916 1.0885828 0.7648148 0.82940567 1.0013537 0.83253103 0.991213 0.94416094
0.9384346 0.84584135 0.6653524 0.9733687 0.8248941 0.90584075 1.0640419 0.9581978
00000000: d103 a33f c446 493f 14cc 473f b714 8b3f
00000010: 2153 143f 2b6b 513f e4a4 6b3f e462 d43f
00000020: c594 573f 8b4c 273f dcc3 843f dcc0 7c3f
00000030: 13ea 903f 889d 513f 9f76 703f eef6 603f
00000040: c1c1 4a3f 9ddc 693f e10f 4c3f 9ac4 603f
00000050: d375 393f 978b 603f a462 673f e1e8 503f
00000060: a9b7 6d3f a089 373f 0aa6 fb3e 8b21 7f3f
00000070: 7859 db3f d160 543f ce71 263f ac1a 5d3f
00000080: bd98 a03f e5d5 6b3f 2d20 523f aa6e 9a3f
00000090: 08ca 583f 290e 4b3f a3a9 6e3f 9bc2 763f
000000a0: 578a 5c3f 9493 873f 00a2 2f3f 11c2 543f
000000b0: 77bb 7d3f 887d 473f 26fb 633f f998 533f
000000c0: 0894 803f 6a6b 4c3f 4b1a 443f ee00 6b3f
000000d0: b5b2 823f f05a 843f b612 803f 9653 7e3f
000000e0: f8b2 593f b403 653f 26f6 233f 5175 803f
000000f0: 5617 623f 7241 773f 55bb 663f cb29 5b3f
00000100: c065 6f3f f3e0 6b3f 3e3c 3b3f 9cb1 7c3f
00000110: 0b00 443f 4f61 663f 2ee1 5d3f b779 3f3f
00000120: 027a 4d3f a358 533f 725a 6f3f 4aba 5f3f
00000130: 4b14 813f 4266 983f f34a 5b3f d8fc 683f
00000140: 2608 6a3f b811 5a3f 0591 813f df20 283f
00000150: 48a4 5f3f b60a 973f 8b0e 5d3f 8bc1 4f3f
00000160: 74ad 583f 424a 573f c757 453f 6743 4f3f
00000170: b27e 3d3f ace1 8f3f 976e 753f 1f9d 7c3f
00000180: 0c11 923f 9751 593f f8d7 843f be3a 583f
00000190: 9534 513f a4d4 673f 1030 8c3f 5b01 4d3f
000001a0: cd39 203f 96cd 6a3f 4805 6f3f 7f05 8e3f
000001b0: 7834 543f a9f1 5c3f 1c64 753f b335 6d3f
000001c0: 7df0 7a3f e6c8 8d3f 66b9 553f 937f 3c3f
000001d0: 0ecd 733f 70d8 773f 0a7d 8a3f 2bf3 5d3f
000001e0: a818 743f b22b 353f 3c38 4d3f bd2d 733f
000001f0: ba65 693f 3988 5b3f 46d9 453f cd83 643f
00000200: d79f 613f c9a1 803f a86c 703f 4f1a 263f
00000210: 5fc1 4c3f 685e 6f3f 92de 923f 376b 693f
00000220: ce3f 6f3f baca 763f affb 493f c9d5 8d3f
00000230: 5e9c 6d3f 6cc4 7d3f 8792 8b3f 30b5 423f
00000240: 8eac 5f3f 55c7 803f 34a6 843f 551e 223f
00000250: bd56 7d3f abec 493f fdb5 613f 25f9 5d3f
00000260: f6e6 663f 1ee4 8e3f da16 433f eff3 7b3f
00000270: 7753 4c3f 3cc1 5e3f 2d92 543f a933 7b3f
00000280: c0d2 7c3f d899 3e3f 0ff1 453f 053a 5b3f
00000290: 70d6 813f dcbc 573f d9ee 533f 6bd6 843f
000002a0: 2c35 5a3f 835a 613f 493b 813f ee59 713f
000002b0: 03dc 6c3f 5a3d 883f 0f74 5b3f 1e3e 5b3f
000002c0: c92d 843f 5805 7a3f d93f 4a3f 84a8 5f3f
000002d0: 7b30 863f 14d6 603f c76c 493f 246a 723f
000002e0: b60c 643f 8eac 5a3f 73eb 3e3f 5e42 5e3f
000002f0: 10d4 393f a48b 7d3f 63e4 6f3f df0d 463f
00000300: bb5d 5f3f 8f78 aa3f 6cd9 9a3f 5bda 833f
00000310: ac05 4d3f b4a1 643f 048a 323f 730d 713f
00000320: 033b 993f 0024 283f c1fa 743f 7ce3 773f
00000330: a81d 803f 6268 943f 5e68 513f 7740 6f3f
00000340: 7808 9f3f 26e6 613f 9828 713f 4684 363f
00000350: 944d 6d3f d063 8c3f 5ee9 593f b229 633f
00000360: 2d07 493f 2c06 873f 86df 333f aed5 283f
00000370: dc2e 6c3f 5b3f 733f b280 883f c84d 373f
00000380: c02a 7c3f 8d24 653f b095 813f d0bc 883f
00000390: 108d 6c3f 908d 343f 5095 5b3f 8338 513f
000003a0: 12a0 683f c509 8a3f 2acb 583f a326 803f
000003b0: 4000 3f3f 6418 903f cc2d 853f b8ae 523f
000003c0: 5f39 6f3f ae56 8b3f e7ca 433f ee53 543f
000003d0: 5c2c 803f c120 553f 23c0 7d3f 88b4 713f
000003e0: 403d 703f 0f89 583f 8954 2a3f b12e 793f
000003f0: 422c 533f 2ee5 673f 8632 883f 734c 753f

module.bn1d.bias f4 [256]
-0.055318497 0.102608174 -0.0070444564 0.0034385098 -0.27685 0.072333135 0.2626295 0.1044768
-0.09452802 -0.119776696 -0.037595093 0.12279746 0.07565797 -0.26545292 -0.14225827 0.00842587
0.12638015 0.20540684 -0.14670373 -0.024714533 -0.19105823 0.18291864 -0.10358256 0.017185125
-0.20476916 -0.14045657 -0.26624405 -0.11797509 0.4068591 -0.013283754 -0.015677497 -0.17933922
0.17302363 -0.051500827 -0.08236346 0.026412096 -0.09454549 0.0012316603 -0.08690339 -0.08846359
-0.14242849 0.044390526 -0.027308801 -0.05470978 0.16710873 -0.1279559 -0.047907125 -0.07813421
0.006572953 -0.06146808 0.04721713 -0.09303138 0.005521968 -0.26948157 -0.17846489 -0.030770881
0.087441415 0.076683104 -0.043064706 0.01726694 -0.031458464 0.018605677 0.06193118 -0.15942492
0.07134926 0.07223427 -0.060658786 -0.019455185 0.038999777 0.17335881 0.122154325 -0.11616461
-0.15536469 -0.056086164 0.025363375 0.06652077 -0.03850372 -0.15525529 -0.024642281 -0.11761818
-0.015705993 0.027069785 0.011535122 -0.048616435 -0.07396552 -0.0065011126 -0.043099348 -0.02005826
0.015235364 -0.25933856 0.03227225 0.17812645 -0.09715847 0.15652226 -0.14132693 0.033665664
0.22353815 -0.10525126 0.19801198 -0.053080253 -0.057490263 -0.041262675 0.083779514 -0.06793326
-0.045197323 0.10745383 0.008660111 0.011484143 -0.09183802 -0.12031413 -0.048418533 0.001740174
-0.15246275 -0.03639189 0.023480756 -0.017275486 0.06185829 0.0019920308 0.2632214 0.034600455
-0.0077922735 -0.09693945 -0.12887281 -0.063227594 0.049345102 -0.07797093 -0.1379855 -0.052183922
0.036913555 0.15984508 -0.073146276 -0.08607283 0.030779636 0.08763215 0.2065614 -0.053233523
0.16116728 -0.10543475 -0.019857015 0.18542099 0.010530486 -0.09304738 -0.031437628 -0.0379408
-0.031153452 -0.05099833 -0.037767466 -0.15183991 -0.013134019 -0.23060915 -0.0049260715 -0.020305872
-0.00095380406 0.15296401 -0.29660502 -0.014838748 -0.20825034 0.25040182 -0.0058841216 -0.05308591
-0.10044213 -0.10619167 -0.11503815 -0.06885162 0.03794063 -0.05374122 -0.143287 0.019412486
0.030784909 -0.08196272 0.054561768 0.0144462185 -0.0508697 0.05538893 0.13688582 -0.030429283
-0.1920408 -0.15507227 0.019872244 -0.021940952 0.13858369 0.052425407 -0.2181175 -0.14699934
0.029831978 -0.14695776 -0.10946527 -0.14477286 -0.016403643 0.13381682 -0.09825598 0.016522579
-0.08496971 0.24838461 0.11545168 -0.12377784 0.0038318078 -0.12155891 -0.05745109 -0.10308421
0.09625363 0.056707315 0.20903158 -0.12342293 0.0021165113 0.2575459 0.071764156 -0.07888065
0.04979922 0.0528089 0.072679974 0.04578862 -0.04241965 0.27798465 -0.045194954 0.001976444
-0.13726124 -0.101608686 -0.06872399 -0.05036029 -0.10518457 -0.20002057 0.05939652 -0.058237754
-0.17599805 -0.041817147 0.059426125 -0.03772682 -0.00839279 -0.1611419 0.0698176 -0.013318645
-0.00075477216 -0.039211594 0.0016216158 0.03243079 -0.008339641 -0.042105358 0.09732218 -0.062751554
-0.13627341 -0.10108743 -0.08200556 -0.0048552128 -0.098838225 -0.26273558 0.043380234 -0.096245974
0.011140935 -0.052161217 -0.060327165 0.15374638 -0.05478289 0.016738947 0.026048385 0.036422588
00000000: a695 62bd 3c24 d23d 2fd5 e6bb 9f58 613b
00000010: 48bf 8dbe 6523 943d 6077 863e eff7 d53d
00000020: e897 c1bd 7c4d f5bd 50fd 19bd 3c7d fb3d
00000030: 91f2 9a3d 72e9 87be 27ac 11be a90c 0a3c
00000040: cc69 013e 2c56 523e 8139 16be 2276 cabc
00000050: c5a4 43be 064f 3b3e 1823 d4bd d2c7 8c3c
00000060: 02af 51be d9d3 0fbe 2451 88be ed9c f1bd
00000070: d64f d03e 1aa4 59bc 186e 80bc b3a4 37be
00000080: 1b2d 313e 88f2 52bd 2cae a8bd 2e5e d83c
00000090: 11a1 c1bd a96f a13a 68fa b1bd 662c b5bd
000000a0: c6d8 11be d7d2 353d b5b6 dfbc 5d17 60bd
000000b0: 8d1e 2b3e df06 03be 433a 44bd d404 a0bd
000000c0: ed61 d73b f4c5 7bbd c066 413d 3c87 bebd
000000d0: a0f1 b43b 7df9 89be 80bf 36be 3713 fcbc
000000e0: 7c14 b33d 080c 9d3d 9e64 30bd 6673 8d3c
000000f0: 97da 00bd ef6a 983c 8dab 7d3d 4940 23be
00000100: 901f 923d 90ef 933d 5975 78bd 7b60 9fbc
00000110: 3bbe 1f3d f984 313e 0c2c fa3d b6e7 edbd
00000120: ec17 1fbe 9bba 65bd dac6 cf3c 0b3c 883d
00000130: 14b6 1dbd 3efb 1ebe 9cde c9bc cde1 f0bd
00000140: dba9 80bc 74c1 dd3c cffd 3c3c 0722 47bd
00000150: 3c7b 97bd 4907 d5bb f188 30bd 3851 a4bc
00000160: c09d 793c 06c8 84be e82f 043d c866 363e
00000170: 05fb c6bd 5f47 203e 02b8 10be 02e5 093d
00000180: 2fe7 643e f98d d7bd a7c3 4a3e ae6a 59bd
00000190: e97a 6bbd 0d03 29bd 9894 ab3d 9820 8bbd
000001a0: d420 39bd c110 dc3d 23e3 0d3c fd27 3c3c
000001b0: 9215 bcbd 4167 f6bd 8352 46bd 8d16 e43a
000001c0: 321f 1cbe aa0f 15bd b75a c03c 5285 8dbc
000001d0: 1e5f 7d3d bb8c 023b f5c4 863e 35b9 0d3d
000001e0: 5456 ffbb 3188 c6bd 3cf7 03be 787d 81bd
000001f0: 171e 4a3d 39af 9fbd 124c 0dbe cfbe 55bd
00000200: ab32 173d 6eae 233e b7cd 95bd f446 b0bd
00000210: 9325 fc3c 7c78 b33d d584 533e 650b 5abd
00000220: 0909 253e 2dee d7bd 2eab a2bc 00df 3d3e
00000230: 0f88 2c3c a08f bebd bec4 00bd d067 1bbd
00000240: 8635 ffbc a0e3 50bd 0fb2 1abd ec7b 1bbe
00000250: 1230 57bc ce24 6cbe e26a a1bb 8058 a6bc
00000260: b508 7aba 99a2 1c3e 9ddc 97be 381e 73bc
00000270: 943f 55be ab34 803e 97cf c0bb 9c70 59bd
00000280: 9ab4 cdbd 057b d9bd 1f99 ebbd 1402 8dbd
00000290: a267 1b3d c11f 5cbd d4b9 12be ef06 9f3c
000002a0: a230 fc3c 12dc a7bd 297c 5f3d d5af 6c3c
000002b0: bf5c 50bd 81df 623d cc2b 0c3e d546 f9bc
000002c0: 58a6 44be 44cb 1ebe 1ecb a23c 83bd b3bc
000002d0: e2e8 0d3e 06bc 563d 325a 5fbe ff86 16be
000002e0: 3162 f43c 187c 16be 542f e0bd 563f 14be
000002f0: ef60 86bc 4707 093e 6e3a c9bd 5c5a 873c
00000300: 9904 aebd 8958 7e3e ee71 ec3d 3c7f fdbd
00000310: 111f 7b3b e1f3 f8bd d651 6bbd d01d d3bd
00000320: a020 c53d ee45 683d 600c 563e 29c5 fcbd
00000330: 2bb5 0a3b 0edd 833e 16f9 923d 2e8c a1bd
00000340: 44fa 4b3d 254e 583d 3dd9 943d d98c 3b3d
00000350: 3ac0 2dbd 0154 8e3e 581e 39bd 3a87 013b
00000360: 368e 0cbe 3718 d0bd 2abf 8cbd 9746 4ebd
00000370: 026b d7bd 31d2 4cbe c449 733d b68a 6ebd
00000380: d538 34be 7548 2bbd cf68 733d 7087 1abd
00000390: ea81 09bc 6202 25be 88fc 8e3d 7236 5abc
000003a0: e7db 45ba 569c 20bd 668c d43a 26d6 043d
000003b0: fda2 08bc ab76 2cbd da50 c73d e383 80bd
000003c0: 428b 0bbe ed06 cfbd 88f2 a7bd 7a18 9fbb
000003d0: b26b cabd 4785 86be 79af 313d 9c1c c5bd
000003e0: 7888 363c 00a7 55bd 9e19 77bd b16f 1d3e
000003f0: 0664 60bd 1e20 893c 6c63 d53c da2f 153d

module.bn1d.running_mean f4 [256]
0.052098125 -0.11889471 0.13032617 -0.062812306 -0.028373742 -0.04052268 0.023202535 0.06139877
-0.16850986 0.04108784 0.046992723 -0.16270567 0.1664733 0.15846947 -0.18359531 -0.13981254
-0.16519453 -0.16936481 -0.14236915 0.021352597 0.08292872 0.064763635 0.11150958 0.16384137
0.13504723 -0.13996294 0.15387349 0.065210745 -0.10283714 0.025732035 -0.033055823 -0.04483957
0.08636208 0.12118002 -0.103369065 -0.047274485 0.1183038 0.18945725 -0.02555349 -0.16206926
0.0687082 -0.13368344 0.06082226 -0.0036446226 -0.04645587 0.006644373 0.008796243 -0.0056947987
-0.17834084 -0.15079266 0.08672536 0.073321976 -0.020383013 0.025886003 -0.017571356 -0.030290667
-0.08683054 -0.1036557 -0.099807106 -0.00094892376 -0.16809103 -0.0654631 -0.041196536 -0.13770178
0.058028378 0.03602882 -0.104714885 -0.01141981 -0.012231931 -0.072954595 0.13588658 -0.15527143
0.07303151 -0.14039223 -0.10254841 0.01124666 0.12468502 -0.17197537 0.07375244 -0.034816593
-0.07507163 -0.11542103 -0.010879849 -0.0016054726 -0.038710844 -0.11356027 -0.070751645 0.03570509
-0.0040089516 0.032275174 0.0135222655 -0.00237763 -0.07837897 -0.119770356 -0.14006671 0.16975518
0.074982405 -0.13879599 0.019183213 0.10446437 -0.08389949 -0.037545085 -0.16173011 0.009835221
0.03448588 -0.0060657654 0.09651045 0.015542742 0.009168722 0.13642338 -0.09968416 -0.17770408
0.116445184 0.06503837 0.051047474 0.12539713 0.07988984 0.1504149 0.16688353 -0.041533787
0.16495074 0.077266656 -0.11068837 -0.12528574 -0.15218203 -0.032351907 0.06183769 -0.1484693
0.11057698 0.0168134 0.054036744 0.020267231 0.16749068 -0.03086555 0.009755273 0.15064664
0.023679923 -0.13030308 -0.018218052 0.07421746 -0.027681282 -0.10563635 -0.12253939 0.117580354
0.077101395 -0.13174176 0.14187375 0.06441593 -0.0540006 -0.14897434 -0.09201361 -0.056443453
-0.07648571 -0.14437419 0.13853952 0.044306934 -0.037680347 -0.01724685 0.031067511 0.058111846
0.089623824 -0.07779722 -0.13364659 -0.039077554 -0.040057007 0.028876334 -0.10443381 0.034062006
-0.116522506 0.17455049 -0.10427546 0.14375162 0.08005331 -0.15502931 0.12963328 0.07828825
0.12265993 0.040987294 0.037121736 -0.02489715 0.08821217 0.09216641 0.039386228 -0.13048518
-0.003984245 0.015309802 0.11547683 0.1525294 0.12764205 -0.11690042 -0.12321346 -0.17637324
-0.051559556 0.14978345 0.09440499 -0.16757509 -0.034553003 0.15964912 -0.0616187 -0.05205465
0.16127966 0.0073461994 -0.021763178 0.109501794 0.03180707 0.16758537 0.08604193 0.0880958
0.02750016 -0.10852035 -0.10785699 0.12868923 0.027477933 -0.14135988 -0.07578917 -0.04198211
-0.106559075 -0.085188076 0.08194416 0.012570456 0.09092906 0.11087826 -0.077501476 -0.035764817
-0.03316637 0.044274755 -0.13603692 0.012150277 0.17430693 0.107422516 0.07742869 -0.032268398
0.10595337 -0.036407437 -0.15285629 0.03347603 -0.17734453 -0.054407082 -0.032237515 -0.04832006
-0.033672318 -0.0724232 0.029567642 0.051330075 0.026404498 0.09626444 0.13341033 -0.049123835
-0.07034572 0.10896115 -0.120572805 -0.0024128037 0.14652586 0.03290649 0.014661988 0.034709487
00000000: d864 553d 127f f3bd 3974 053e bda3 80bd
00000010: 0d70 e8bc 1cfb 25bd 3e13 be3c 477d 7b3d
00000020: d98d 2cbe b94b 283d 717b 403d 519c 26be
00000030: fa77 2a3e d245 223e 6900 3cbe 052b 0fbe
00000040: c128 29be f86d 2dbe 38c9 11be a4eb ae3c
00000050: 88d6 a93d cca2 843d 225f e43d 08c6 273e
00000060: d249 0a3e 7252 0fbe 0391 1d3e 368d 853d
00000070: 479c d2bd fdcb d23c 8b65 07bd b2a9 37bd
00000080: 9ade b03d 3b2d f83d 29b3 d3bd e4a2 41bd
00000090: 4349 f23d 1501 423e 8d55 d1bc 7cf5 25be
000000a0: e2b6 8c3d 50e4 08be c320 793d 9fda 6ebb
000000b0: 8348 3ebd 0ab9 d93b 1e1e 103c 6f9b babb
000000c0: fb9e 36be 6469 1abe 119d b13d d529 963d
000000d0: 47fa a6bc e20e d43c cef1 8fbc 2224 f8bc
000000e0: 36d4 b1bd 7149 d4bd ab67 ccbd 32c1 78ba
000000f0: 0e20 2cbe 8511 86bd b3bd 28bd b201 0dbe
00000100: 2aaf 6d3d f592 133d c274 d6bd 281a 3bbc
00000110: 7068 48bc 3869 95bd da25 0b3e 79ff 1ebe
00000120: 8b91 953d fbc2 0fbe e704 d2bd e943 383c
00000130: dc5a ff3d 501a 30be 850b 973d d89b 0ebd
00000140: 28bf 99bd dc61 ecbd 6541 32bc b96e d2ba
00000150: 438f 1ebd 4992 e8bd 3de6 90bd 803f 123d
00000160: 865d 83bb f932 043d 7e8c 5d3c 03d2 1bbb
00000170: 2785 a0bd 294a f5bd a66d 0fbe 4dd4 2d3e
00000180: 6090 993d 8920 0ebe 1d26 9d3c 6af1 d53d
00000190: 7fd3 abbd e0c8 19bd 949c 25be e823 213c
000001a0: 1141 0d3d 54c3 c6bb 45a7 c53d fca6 7e3c
000001b0: 6838 163c 92b2 0b3e 3527 ccbd 0ff8 35be
000001c0: d07a ee3d d632 853d 2817 513d 1b68 003e
000001d0: 499d a33d 5d06 1a3e 84e3 2a3e 551f 2abd
000001e0: d9e8 283e fb3d 9e3d 96b0 e2bd e84a 00be
000001f0: 9bd5 1bbe 6f83 04bd 8549 7d3d 5608 18be
00000200: 2f76 e23d 41bc 893c a255 5d3d 7707 a63c
00000210: ad82 2b3e c0d9 fcbc 95d4 1f3c 1d43 1a3e
00000220: 66fc c13c 2c6e 05be 063e 95bc 53ff 973d
00000230: dbc3 e2bc df57 d8bd eff5 fabd f8cd f03d
00000240: 56e7 9d3d 50e7 06be 5a47 113e 80ec 833d
00000250: bc2f 5dbd bb8c 18be a271 bcbd 4031 67bd
00000260: 8aa4 9cbd d4d6 13be 4edd 0d3e 307b 353d
00000270: b556 1abd 4449 8dbc 4b81 fe3c b006 6e3d
00000280: b28c b73d 2654 9fbd a7da 08be c90f 20bd
00000290: d112 24bd 108e ec3c 65e1 d5bd 9a84 0b3d
000002a0: 5aa3 eebd 5dbd 323e 5f8e d5bd a033 133e
000002b0: fdf2 a33d 01c0 1ebe 96be 043e 9755 a03d
000002c0: 2135 fb3d 4be2 273d f60c 183d 1cf5 cbbc
000002d0: 95a8 b43d bec1 bc3d 7453 213d e89d 05be
000002e0: 458e 82bb f7d5 7a3c 1e7f ec3d ab30 1c3e
000002f0: 99b4 023e 7d69 efbd 5757 fcbd 309b 34be
00000300: 1d30 53bd d560 193e 6757 c13d ce98 2bbe
00000310: 7387 0dbd 0f7b 233e e463 7cbd 4237 55bd
00000320: 7f26 253e 63b8 f03b b148 b2bc 7a42 e03d
00000330: 2148 023d 809b 2b3e c036 b03d 926b b43d
00000340: 0448 e13c eb3f debd 20e4 dcbd 1cc7 033e
00000350: 6719 e13c a5c0 10be 5a37 9bbd 6ff5 2bbd
00000360: a53b dabd 1677 aebd 57d2 a73d 50f4 4d3c
00000370: 0439 ba3d 2414 e33d 18b9 9ebd 217e 12bd
00000380: 76d9 07bd 7259 353d 434d 0bbe f511 473c
00000390: 847d 323e 5600 dc3d ef92 9e3d de2b 04bd
000003a0: 15fe d83d f71f 15bd 5c86 1cbe 291e 093d
000003b0: ce99 35be f6d9 5ebd 7c0b 04bd 41eb 45bd
000003c0: fceb 09bd 9d52 94bd d737 f23c 7c3f 523d
000003d0: 3f4e d83c 4a26 c53d b89c 083e 1336 49bd
000003e0: 6b11 90bd 0627 df3d e0ee f6bd 2120 1ebb
000003f0: e00a 163e f5c8 063d d638 703c 892b 0e3d

module.bn1d.running_var f4 [256]
0.32470924 0.44498447 0.29399428 0.40249422 0.4133541 0.33865497 0.37487754 0.38877058
0.38036117 0.33354175 0.30756924 0.4161357 0.3393454 0.32187304 0.2737969 0.24816887
0.4250847 0.38961706 0.3215049 0.38877663 0.4566765 0.34959754 0.3088394 0.35629869
0.3237716 0.36084908 0.4385596 0.33465236 0.36258796 0.33264595 0.44033718 0.3456622
0.33774492 0.46944976 0.47768658 0.25243586 0.33972886 0.36860245 0.35232735 0.46418557
0.3141985 0.31485167 0.36761627 0.37287492 0.44172063 0.2539081 0.40430164 0.42278808
0.35399958 0.40357888 0.3321479 0.29427928 0.39856142 0.295675 0.23911338 0.29315668
0.34383854 0.33203492 0.46820116 0.27231902 0.3154694 0.39380962 0.34472114 0.26222453
0.3622373 0.35302788 0.4128232 0.3323287 0.33372062 0.33668506 0.21826693 0.33790046
0.36085224 0.25750393 0.2544537 0.2780074 0.275351 0.26878875 0.2553312 0.41819835
0.4124241 0.3241004 0.2418614 0.4278752 0.34788412 0.22068486 0.46089324 0.29790664
0.42200184 0.2713474 0.36746174 0.36221054 0.3867348 0.40092143 0.27937177 0.3629401
0.2870226 0.36679834 0.32451504 0.34410724 0.22717655 0.34952426 0.30865997 0.3252988
0.37970912 0.38844544 0.3328407 0.29582393 0.35633817 0.4108164 0.2866482 0.38553104
0.30573437 0.2566793 0.3267046 0.34060097 0.3428852 0.3603032 0.40511218 0.37579075
0.35930783 0.35867056 0.35938576 0.28870034 0.37881204 0.29955357 0.28487253 0.34403056
0.47636205 0.3937428 0.3746881 0.43991122 0.34519726 0.3533885 0.2639947 0.2850477
0.32981312 0.303463 0.34586397 0.29881018 0.35545307 0.29356068 0.35169885 0.40170324
0.35143504 0.32858062 0.23739576 0.42950416 0.3828053 0.3414509 0.41505298 0.4134213
0.29457036 0.32919687 0.3132985 0.38651174 0.4654703 0.36369064 0.36198908 0.43365353
0.34086028 0.28369206 0.3448035 0.2916342 0.29827663 0.46890214 0.25675565 0.3945352
0.39957103 0.3495849 0.2677936 0.40796024 0.27390647 0.40223745 0.37936968 0.2858206
0.28013343 0.3824589 0.40338185 0.21872768 0.39093038 0.47818014 0.31591776 0.22231166
0.30887246 0.36917818 0.3078516 0.30301848 0.43696755 0.3086994 0.39049345 0.37107876
0.29553023 0.41645303 0.34323546 0.37316498 0.33712855 0.31062397 0.37996176 0.30716613
0.34919348 0.3977353 0.28488374 0.339706 0.32607555 0.26227245 0.37664083 0.3927374
0.2933632 0.31465614 0.35179484 0.35050386 0.2789135 0.2888232 0.44268903 0.3423168
0.43326285 0.3612589 0.42984653 0.31118682 0.3300402 0.38462391 0.26999485 0.3311699
0.2949025 0.3690959 0.38057348 0.3215589 0.38404515 0.32740825 0.37092942 0.33656332
0.3535146 0.24038799 0.46152642 0.3691699 0.4030286 0.3674407 0.30037466 0.30826136
0.37259895 0.2895851 0.38995364 0.33566806 0.36977017 0.33520588 0.29855475 0.34398457
0.32037932 0.373773 0.35033104 0.32323858 0.3171841 0.46258146 0.37275288 0.3440759
00000000: 4a40 a63e 01d5 e33e 6b86 963e b913 ce3e
00000010: 26a3 d33e 2f64 ad3e f3ef bf3e f00c c73e
00000020: b3be c23e fcc5 aa3e b779 9d3e bd0f d53e
00000030: aebe ad3e 8bcc a43e 1b2f 8c3e fb1f 7e3e
00000040: b4a4 d93e e37b c73e 4a9c a43e bb0d c73e
00000050: 81d1 e93e 73fe b23e 3320 9e3e c86c b63e
00000060: 64c5 a53e 36c1 b83e e28a e03e 8e57 ab3e
00000070: 21a5 b93e 9250 aa3e e073 e13e a3fa b03e
00000080: e7ec ac3e b85b f03e 5693 f43e 463f 813e
00000090: f1f0 ad3e 76b9 bc3e 4064 b43e bba9 ed3e
000000a0: a0de a03e 3d34 a13e 3338 bc3e 76e9 be3e
000000b0: 3529 e23e 3e00 823e a000 cf3e ae77 d83e
000000c0: 6f3f b53e e4a1 ce3e 4a0f aa3e c6ab 963e
000000d0: 3e10 cc3e b762 973e 23da 743e a218 963e
000000e0: 9b0b b03e 7b00 aa3e 10b8 ef3e 666d 8b3e
000000f0: 3585 a13e 6aa1 c93e 4a7f b03e 4b42 863e
00000100: 2b77 b93e 12c0 b43e 905d d33e fd26 aa3e
00000110: 6edd aa3e fc61 ac3e 5e81 5f3e 4a01 ad3e
00000120: a0c1 b83e 8ed7 833e c147 823e fc56 8e3e
00000130: cefa 8c3e ae9e 893e c5ba 823e 181e d63e
00000140: 4029 d33e 7df0 a53e 84aa 773e 7512 db3e
00000150: de1d b23e 36fb 613e 33fa eb3e 3887 983e
00000160: a010 d83e 0cee 8a3e f223 bc3e a973 b93e
00000170: 1b02 c63e 9345 cd3e d109 8f3e 49d3 b93e
00000180: a0f4 923e fecc bb3e d626 a63e d32e b03e
00000190: f8a0 683e d8f4 b23e ae08 9e3e 908d a63e
000001a0: 3c69 c23e 52e2 c63e 196a aa3e 3c76 973e
000001b0: f571 b63e 8756 d23e 8ec3 923e 5364 c53e
000001c0: 3789 9c3e 786b 833e d345 a73e 4063 ae3e
000001d0: a68e af3e a979 b83e dd6a cf3e a567 c03e
000001e0: 32f7 b73e aba3 b73e 6901 b83e 88d0 933e
000001f0: a7f3 c13e 165f 993e d0da 913e c624 b03e
00000200: bae5 f33e a898 c93e 1ed7 bf3e 0b3c e13e
00000210: b2bd b03e 56ef b43e 502a 873e c6f1 913e
00000220: 44dd a83e 815f 9b3e 1515 b13e a6fd 983e
00000230: f2fd b53e 964d 963e df11 b43e 0cac cd3e
00000240: 4bef b33e b83b a83e e017 733e f8e7 db3e
00000250: 0eff c33e a7d2 ae3e d381 d43e f5ab d33e
00000260: edd1 963e 7e8c a83e a968 a03e dee4 c53e
00000270: 2052 ee3e a935 ba3e a256 b93e d607 de3e
00000280: 3d85 ae3e 1640 913e 168a b03e 1451 953e
00000290: b7b7 983e f113 f03e 7a75 833e 8500 ca3e
000002a0: 9394 cc3e cbfc b23e 3e1c 893e 2ae0 d03e
000002b0: 783d 8c3e 11f2 cd3e be3c c23e 1457 923e
000002c0: a66d 8f3e a7d1 c33e 1188 ce3e 26fa 5f3e
000002d0: 0728 c83e 07d4 f43e f9bf a13e aba5 633e
000002e0: 8824 9e3e ec04 bd3e ba9e 9d3e 3d25 9b3e
000002f0: 36ba df3e d90d 9e3e c2ee c73e 09fe bd3e
00000300: bd4f 973e 5539 d53e 8fbc af3e 7b0f bf3e
00000310: 1d9c ac3e 1b0a 9f3e 598a c23e e144 9d3e
00000320: 7dc9 b23e f6a3 cb3e 48dc 913e f2ed ad3e
00000330: 60f3 a63e 9348 863e 11d7 c03e e014 c93e
00000340: b433 963e 9c1a a13e 741e b43e 3e75 b33e
00000350: c0cd 8e3e a2e0 933e 23a8 e23e 2644 af3e
00000360: a1d4 dd3e edf6 b83e d814 dc3e e153 9f3e
00000370: 07fb a83e 6ded c43e c43c 8a3e 1a8f a93e
00000380: 76fd 963e 23fa bc3e 87da c23e 5ea3 a43e
00000390: 91a1 c43e 0ea2 a73e 76ea bd3e 0752 ac3e
000003a0: deff b43e 4528 763e 314d ec3e d603 bd3e
000003b0: c459 ce3e 3021 bc3e b5ca 993e 6fd4 9d3e
000003c0: 4ac5 be3e 8044 943e 01a8 c73e afdc ab3e
000003d0: 8452 bd3e 1ba0 ab3e 2bdc 983e bf1e b03e
000003e0: c208 a43e 2d5f bf3e 975e b33e 877f a53e
000003f0: f465 a23e 7ad7 ec3e 77d9 be3e b72a b03e

module.resnet.0.conv_0.weight f4 [16, 16, 3, 3]
-0.04250383 -0.06831443 0.02829911 0.17496964 0.18709698 -0.06690579 0.0747717 0.03938055
0.064071424 -0.058132965 0.0029451244 -0.21761301 -0.024715133 0.16932659 0.14953089 0.13994274
0.111812 -0.1080461 -0.07148486 0.106953524 -0.06895748 0.12985952 -0.10122998 0.025405684
-0.08592835 -0.0019966608 -0.13179044 -0.2963131 0.08469744 0.013873371 0.013112232 -0.13629606
-0.03559858 -0.13986363 -0.077517666 0.12962642 -0.119804196 0.082798116 -0.123474985 0.10312158
-0.025128823 -0.14915921 -0.09255761 0.115013964 -0.01769071 -0.3773311 0.08056125 0.12072462
0.080967925 -0.06178866 -0.08439365 0.12182145 -0.1582998 0.009655312 -0.14310145 -0.166318
0.114285275 0.2025396 -0.07478149 0.046212196 0.0672122 -0.10802102 -0.099227086 -0.16886334
-0.13467215 -0.09281064 -0.23792642 -0.1311119 -0.21502836 -0.13877946 -0.030054847 -0.07175037
0.0207211 -0.03708493 -0.13612148 0.070742324 -0.05796762 -0.19783446 -0.026545286 -0.06622636
0.07424539 0.032336008 -0.041811652 0.005556406 0.07517429 -0.2367409 0.19197316 0.013257746
0.31119195 0.15961897 0.033659995 -0.09311065 0.08776123 0.03053148 -0.08497218 -0.13638858
-0.08296007 -0.09417375 0.03797927 0.199219 0.1482133 -0.024013566 0.03300165 0.05499151
-0.13303855 -0.15413772 0.15010907 0.076956294 0.16585353 -0.1887365 0.16648366 -0.11586524
0.011483925 0.07671034 0.10213972 -0.035206698 -0.10611666 -0.1254421 0.099632785 0.12378838
-0.028566683 0.02249159 -0.0022023655 -0.060549445 0.019531667 -0.053034432 -0.02169079 0.040203087
0.035778984 -0.09019906 -0.096293055 0.15840739 0.008592926 0.011359827 0.16324438 -0.29476187
-0.033502888 0.17509124 0.0039046933 -0.04228846 0.04565001 -0.13979393 -0.23119688 0.074906215
-0.07604568 0.081677556 0.23571898 0.006963089 0.0755213 0.16246277 -0.1612787 0.026434211
0.016818747 0.098260544 -0.11102955 0.07895993 0.13189578 0.16230127 0.08607194 -0.201324
-0.27372137 -0.17989172 0.015405678 -0.055300068 -0.058153734 0.071054235 -0.081594944 -0.07713928
0.057983093 -0.029671816 -0.31340304 -0.07299003 -0.063776255 -0.05028487 0.068879604 -0.024582934
-0.06635944 0.027641725 0.011333831 -0.04363858 0.043282144 0.122470215 0.004697295 0.09785306
0.20054798 -0.094794504 0.04253136 -0.11520016 -0.13981906 0.03251729 -0.016306631 0.030710032
0.13430314 0.025623228 0.09927376 0.039143495 0.22467007 -0.04990295 -0.11081232 0.07259777
-0.085771725 0.065703 0.12737112 -0.020181865 0.07322797 -0.13645211 -0.3171494 -0.23864989
0.07943311 -0.10098903 -0.114062846 0.05041643 -0.009785749 0.025137637 0.018298086 -0.12600723
0.013768228 -0.026365872 -0.025677461 0.20408592 0.023357911 -0.045924008 0.026411569 -0.033727773
0.30528665 -0.0108471755 -0.040181477 0.04709437 -0.15544432 -0.1611953 -0.072208844 0.21239072
0.115259014 -0.013121203 0.12485358 -0.12588114 -0.105775304 -0.027833415 -0.09442864 -0.045605354
0.08926029 -0.0009211265 0.35047808 0.22171386 -0.055474307 -0.18328014 -0.03341971 0.26675224
-0.19200112 0.020369496 0.04559467 0.109486006 0.043290697 -0.018916992 -0.13546246 -0.04979959
00000000: 7f18 2ebd 70e8 8bbd 89d3 e73c 3e2b 333e
00000010: 5a96 3f3e e705 89bd e821 993d 804d 213d
00000020: e137 833d d51c 6ebd fd02 413b f2d5 5ebe
00000030: 6477 cabc f363 2d3e a01e 193e 264d 0f3e
00000040: b1fd e43d 4647 ddbd a766 92bd 730a db3d
00000050: 9439 8dbd e5f9 043e aa51 cfbd 951f d03c
00000060: 34fb afbd 69da 02bb 13f4 06be 5ab6 97be
00000070: da75 ad3d 234d 633c b0d4 563c 3291 0bbe
00000080: d1cf 11bd 6938 0fbe 95c1 9ebd cabc 043e
00000090: e75b f5bd 0f92 a93d 74e0 fcbd 6831 d33d
000000a0: f6da cdbc 31bd 18be d88e bdbd 718c eb3d
000000b0: 1cec 90bc 8b31 c1be 4cfd a43d 783e f73d
000000c0: 83d2 a53d 1b16 7dbd 94d6 acbd 867d f93d
000000d0: 5819 22be 5031 1e3c 3089 12be 444f 2abe
000000e0: 660e ea3d 8a66 4f3e 0a27 99bd 0049 3d3d
000000f0: 8da6 893d 203a ddbd 9237 cbbd 83ea 2cbe
00000100: 7fe7 09be 8113 bebd fca2 73be 3342 06be
00000110: 6530 5cbe 341c 0ebe 9535 f6bc dcf1 92bd
00000120: 4cbf a93c 5ee6 17bd 6e63 0bbe 5ae1 903d
00000130: 756f 6dbd 1e95 4abe 8075 d9bc b0a1 87bd
00000140: f80d 983d c372 043d b242 2bbd 8312 b63b
00000150: faf4 993d 356c 72be 9d94 443e 0437 593c
00000160: 8d54 9f3e 2873 233e 10df 093d ccb0 bebd
00000170: 29bc b33d 281d fa3c e505 aebd 73a9 0bbe
00000180: f8e6 a9bd 2bde c0bd 2790 1b3d 1100 4c3e
00000190: 3ac5 173e 19b8 c4bc bd2c 073d c73e 613d
000001a0: 423b 08be 47d6 1dbe 31b6 193e 439b 9d3d
000001b0: 82d5 293e 2444 41be b17a 2a3e c14a edbd
000001c0: 1327 3c3c 501a 9d3d a12e d13d e634 10bd
000001d0: b153 d9bd e573 00be 460c cc3d c384 fd3d
000001e0: ad04 eabc 4840 b83c 9055 10bb b202 78bd
000001f0: e000 a03c a23a 59bd e2b0 b1bc feab 243d
00000200: fc8c 123d 49ba b8bd 4b35 c5bd 8c35 223e
00000210: 58c9 0c3c 911e 3a3c 8929 273e 07eb 96be
00000220: 533a 09bd 1e4b 333e e2e5 7f3b aa36 2dbd
00000230: 81fb 3a3d 2426 0fbe e0be 6cbe 6e68 993d
00000240: d6bd 9bbd 9046 a73d 5160 713e a02a e43b
00000250: e9aa 9a3d a45c 263e 3e26 25be 8f8c d83c
00000260: 78c7 893c d33c c93d 7663 e3bd beb5 a13d
00000270: b00f 073e 4e32 263e 7c46 b03d e127 4ebe
00000280: 3525 8cbe 8935 38be 1968 7c3c 5382 62bd
00000290: 9c32 6ebd e284 913d 401b a7bd 33fb 9dbd
000002a0: ae7f 6d3d 4f12 f3bc 5d76 a0be cc7b 95bd
000002b0: 209d 82bd 82f7 4dbd c010 8d3d 2662 c9bc
000002c0: 75e7 87bd e670 e23c 88b1 393c 5ebe 32bd
000002d0: 9e48 313d aad1 fa3d c4eb 993b 2f67 c83d
000002e0: 735c 4d3e 9f23 c2bd 5d35 2e3d 10ee ebbd
000002f0: ba2c 0fbe da30 053d 7c95 85bc 9b93 fb3c
00000300: c386 093e cee7 d13c 0b50 cb3d ee54 203d
00000310: e90f 663e 0967 4cbd 92f1 e2bd 24ae 943d
00000320: 16a9 afbd 4b8f 863d 936d 023e 7054 a5bc
00000330: 8cf8 953d 1aba 0bbe 6861 a2be a360 74be
00000340: d4ad a23d 56d3 cebd c899 e9bd 7581 4e3d
00000350: 6854 20bc 72ed cd3c dee5 953c 0a08 01be
00000360: 2294 613c 3efd d7bc 8a59 d2bc e6fb 503e
00000370: 1759 bf3c d01a 3cbd 135d d83c 2226 0abd
00000380: 884e 9c3e 5ab8 31bc 5595 24bd 07e6 403d
00000390: cc2c 1fbe 6110 25be 3be2 93bd f47c 593e
000003a0: eb0c ec3d 50fa 56bc 3cb3 ff3d fce6 00be
000003b0: b9a0 d8bd e702 e4bc ce63 c1bd aecc 3abd
000003c0: 19ce b63d c177 71ba dd71 b33e f508 633e
000003d0: 0739 63bd caad 3bbe 1be3 08bd c093 883e
000003e0: f19b 44be eedd a63c 7ac1 3a3d 333a e03d
000003f0: 9651 313d cff7 9abc acb6 0abe a8fa 4bbd

module.resnet.0.bn2d_0.weight f4 [16]
1.0088407 0.9737354 1.0168475 0.9653032 0.98448455 1.0138204 1.0565262 1.042654
0.8931693 0.9825243 1.0258086 1.0094162 0.9217146 1.0940832 1.0125374 0.99716926
00000000: b121 813f b946 793f 0f28 823f 1c1e 773f
00000010: 2e07 7c3f dec4 813f 403c 873f b075 853f
00000020: bea6 643f b686 7b3f b24d 833f 8d34 813f
00000030: 7df5 6b3f eb0a 8c3f d39a 813f 7c46 7f3f

module.resnet.0.bn2d_0.bias f4 [16]
-0.13202044 -0.17505105 -0.15067756 -0.031600103 -0.12161337 -0.055515997 -0.11774548 -0.036917284
0.067917 -0.13532676 -0.17117366 -0.0660733 -0.09509134 -0.23739558 -0.16861984 -0.1571332
00000000: 5e30 07be 9540 33be 384b 1abe 1c6f 01bd
00000010: 6e10 f9bd be64 63bd 8b24 f1bd 9436 17bd
00000020: 1118 8b3d 1993 0abe 2648 2fbe 7051 87bd
00000030: 40bf c2bd d417 73be aeaa 2cbe 87e7 20be

module.resnet.0.bn2d_0.running_mean f4 [16]
-0.3918103 0.16750214 -0.20523335 -0.57773894 -0.08636248 -0.043576416 -0.8640678 -0.0986335
0.23055698 -0.36397257 -0.21784756 -0.032750778 -0.32196698 -0.44233492 -0.20111439 -0.029329276
00000000: 5c9b c8be ae85 2b3e b128 52be b3e6 13bf
00000010: d0de b0bd 2f7d 32bd 8c33 5dbf 5c00 cabd
00000020: 2117 6c3e 9d5a babe 6e13 5fbe ae25 06bd
00000030: dbd8 a4be b979 e2be eef0 4dbe f343 f0bc

module.resnet.0.bn2d_0.running_var f4 [16]
0.67835647 0.6527954 0.5806951 0.5148698 0.6328439 0.76686424 0.7143443 0.5333391
0.70908386 0.7511626 0.5711561 0.64729804 0.64659387 0.58312196 0.4616145 0.53467435
00000000: c5a8 2d3f 991d 273f 6fa8 143f 82ce 033f
00000010: 0f02 223f 3751 443f 45df 363f e988 083f
00000020: 8586 353f 314c 403f 4937 123f 53b5 253f
00000030: 2d87 253f 7b47 153f bc58 ec3e 6be0 083f
